dataset/lenet_cifar10.pth (torch, 251391 bytes, 10 tensors)

conv1.weight f4 [6, 3, 5, 5]
000000 74 2d 14 bd 67 0c f5 bd c6 c4 33 3d d9 7e 9b bc
       -0.03617616 -0.11965256 0.04388883 -0.018981384
000010 3b 1e 5f bc 0c 45 aa bd 87 0a 34 be ee ab 62 3d
       -0.013618047 -0.08313951 -0.17582141 0.055339746
000020 50 73 37 3e 6c 4c 07 bd 71 ce 4a be d3 53 04 be
       0.17915082 -0.033031866 -0.19805314 -0.12922601
000030 2d a2 d6 3d 87 ee 46 3e d1 97 23 3d e1 54 e8 bd
       0.10480151 0.19426928 0.039939705 -0.11344314
000040 e1 da 4b be e5 16 04 3e 74 cd 2e 3d 98 e9 28 3d
       -0.19907714 0.12899359 0.042676404 0.041238397
000050 1c 49 36 3c 61 82 aa bd ae f7 9e 3d 25 bc df bc
       0.011125829 -0.08325649 0.07762085 -0.027311394
000060 10 5e 9d 3d a7 c2 aa bd 59 c0 9e 3c af 18 0c 3c
       0.076839566 -0.08337908 0.019378828 0.008550807
000070 ec 00 f6 3d 06 27 d1 bd 31 10 5e be 4a 5c 25 be
       0.120118946 -0.10212521 -0.21685864 -0.16148487
000080 55 c8 ff 3d f9 65 30 3e c7 b6 2a 3c af 36 00 be
       0.12489382 0.172264 0.010419554 -0.1252086
000090 27 46 78 be dc 4c 4f 3e fc 5d 53 3e 31 c8 bc 3c
       -0.24245511 0.20244163 0.20641321 0.023044677
0000a0 5b 62 65 be 83 e2 c5 bd 6e 7c b6 3d 38 4c 3a 3e
       -0.22400801 -0.09662344 0.08910452 0.18193138
0000b0 cb 1d 90 bd 44 39 1a b9 55 74 de bd f2 92 13 3e
       -0.070369326 -0.00014707918 -0.10862032 0.14411524
0000c0 28 44 33 3d fa a7 d1 bc 32 c0 19 be c0 be 33 3d
       0.04376617 -0.025592793 -0.15014723 0.043883085
0000d0 06 30 0b 3e 51 e5 32 3e 28 64 a5 3d cd a9 6c be
       0.13592538 0.1747029 0.08075744 -0.23111649
0000e0 a9 3f 31 bc c5 7c d1 3d 9f 2e 7f 3e 08 da 32 ba
       -0.0108184 0.10228876 0.24920128 -0.00068226503
0000f0 fa 50 8f be 2c 24 51 be 9e 4b e2 3d cc 99 4d 3e
       -0.27991468 -0.20423955 0.11049579 0.200782
000100 dc ad 0b 3d 34 b2 13 be 3e f1 05 be 18 f5 7b 3d
       0.034101352 -0.14423448 -0.13080308 0.061513036
000110 1b a2 6f 3e 49 51 62 3d a9 a7 7b bd 05 3c dd 3c
       0.23401682 0.0552533 -0.06143919 0.027006159
000120 17 f0 1a bc 86 80 b9 3d f2 f3 e7 bd d2 d6 d8 3d
       -0.009456656 0.09057717 -0.11325826 0.10587849
000130 c3 99 16 be b1 dc d4 bd 88 2c 93 3c ff 71 3f bd
       -0.14707093 -0.10393656 0.01796557 -0.046739575
000140 6e fa 65 be 2f 1d 8d 3c 5b 28 4b 3e b3 f8 80 be
       -0.22458813 0.01722583 0.19839613 -0.25189742
000150 94 16 bc 3d 83 65 51 3d 3a f5 a3 3b 0c 81 af 3d
       0.09183994 0.0511222 0.0050035985 0.085695356
000160 b4 44 63 be b5 df a8 bc a1 e1 ae 3d 17 df e1 bd
       -0.22194177 -0.020614484 0.08539129 -0.11028879
000170 bc f2 00 bc be 40 c3 3d 7e 02 ca 3c 2f 4e 22 be
       -0.007870372 0.09533833 0.024659391 -0.15850137
000180 6a 89 9c bd 50 b0 1e bd 6a b2 01 ba 4b 8a 54 3e
       -0.07643397 -0.038742363 -0.0004947545 0.2075588
000190 f0 da 3c bd 4b 98 01 bc c2 81 56 bb ae 83 91 3d
       -0.046107233 -0.007909845 -0.003273115 0.07105194
0001a0 b9 ae 07 3e 5c 34 72 bd ca f8 9d 3d 93 bd 8e 3e
       0.13250245 -0.059131965 0.077134684 0.2787901
0001b0 e4 f4 31 be 0f 2f 2d 3e 0c 33 20 bc d9 65 ad bc
       -0.17378575 0.16912483 -0.0097777955 -0.021166729
0001c0 f4 ec 6c 3d d3 a8 0f be 5c 0d e0 3c 36 a8 45 3e
       0.057843164 -0.14029245 0.02735012 0.19302449
0001d0 43 c1 5a bd c8 09 dc bd 09 a0 11 3e 45 17 54 3e
       -0.053406965 -0.10744053 0.14221205 0.20712002
0001e0 53 30 31 be 14 f7 d9 3d d4 fa 8e bd a1 c6 3a 3d
       -0.1730359 0.106428295 -0.069814354 0.045599584
0001f0 6c de 06 3e e8 d7 1b bd ea 26 06 be a8 8d a1 bb
       0.13170785 -0.0380477 -0.13100782 -0.004930217
000200 7f ce a4 bc c9 79 f5 bc 20 c9 00 bd 1a 9b 25 bd
       -0.020117996 -0.029965298 -0.031441808 -0.04043112
000210 50 50 2d 3e a5 25 84 bd e9 76 99 bd 26 4d 84 3d
       0.16925168 -0.064524926 -0.074933834 0.064600274
000220 a7 ac 42 bd 67 7b 9e bc 2b 19 08 be bc 8b 92 bd
       -0.047527935 -0.019345952 -0.13290851 -0.071555585
000230 98 9b 0f 3e 6b 6f 0d be 31 11 c1 bd ae c3 9e 3c
       0.14024198 -0.13812034 -0.09427107 0.019380417
000240 e9 c0 ec 3c 8c c9 1d be 1d b3 ea 3d a0 e0 b8 bd
       0.02890058 -0.15408915 0.114599444 -0.09027219
000250 96 43 6e bd df 58 f7 3d 6a de 6a bb 90 de be 3d
       -0.058169924 0.12077498 -0.0035838136 0.09319794
000260 81 69 0d 3d 91 89 d6 bd 56 ef 27 3d b4 73 8c bc
       0.034524444 -0.104754575 0.040999733 -0.017145015
000270 ef 68 12 be 51 3d 0b 3e 40 9f 91 bd 73 3b ef 3d
       -0.14297841 0.13597609 -0.07110453 0.11681261
000280 9b e0 a0 3d 21 a5 28 3e a0 bb 5a 3e 1e e0 c0 3c
       0.0785534 0.16469242 0.21360636 0.023544367
000290 f8 65 2c 3d 78 db da 3c 8c 52 64 3d ac b0 d9 bc
       0.042089432 0.026715979 0.055742785 -0.026573502
0002a0 b0 c0 35 bd af e7 b6 bd bc ee 5f be 56 92 5c be
       -0.044373214 -0.08930909 -0.21868414 -0.21540198
0002b0 d5 5b 9a be 63 02 59 be 34 48 55 bd d7 e6 0b bd
       -0.30148187 -0.21192317 -0.05207081 -0.034155693
0002c0 e5 dc af bd 56 5e 15 bd f2 c8 30 be 02 79 0b 3e
       -0.08587054 -0.03646692 -0.17264155 0.1362038
0002d0 85 24 c0 3d 8e 44 a9 3b 27 56 c2 bd 77 01 28 3d
       0.093819655 0.005165643 -0.094890885 0.041017022
0002e0 3f 6d 20 3e c6 61 21 3e 41 33 08 3e 3f 31 2a 3e
       0.15666674 0.15759954 0.13300802 0.16620348
0002f0 6d 8f 2c 3e 30 38 7e 3d e1 4d ba bd 0f 0a f3 bd
       0.16851588 0.062065303 -0.090968855 -0.11867153
000300 30 fa 80 bc c3 7a f4 3c f0 17 95 3c 20 1e 16 be
       -0.015744299 0.029843694 0.01819989 -0.1465993
000310 c8 8d b7 bc fd f3 d7 bd 74 98 1c bd 92 44 10 be
       -0.022406474 -0.10544584 -0.038231328 -0.14088657
000320 73 d8 3b bd 22 4a 72 bd 3c 62 d8 bd 5c 82 21 be
       -0.04586072 -0.05915273 -0.10565612 -0.15772384
000330 58 9f 79 bd bc 09 a8 bd 7a d2 3e 3c c3 27 a8 3d
       -0.060942978 -0.08204982 0.011646861 0.08210709
000340 3f 2d 05 bd a6 d7 0a 3d ee c9 0a 3e f6 c1 a8 3d
       -0.032513853 0.033897065 0.13553593 0.0824012
000350 71 eb 3c 3e e5 ca 0a 3e d0 e5 0c 3e 25 f0 fd 3b
       0.18449189 0.1355396 0.13759542 0.0077495747
000360 45 6a e2 3d 21 52 cc 3d a4 43 ce 3c 73 8d 9a 3d
       0.110554256 0.09976602 0.025178738 0.075465105
000370 f6 4e 46 bd 70 cc 7f bd 32 80 c7 bd 75 e2 5d bd
       -0.048415147 -0.062450826 -0.09741248 -0.054171044
000380 ef b6 68 3d 39 7a 8d 3b c0 96 6a 3e 4b 7e b6 3e
       0.056815084 0.0043175486 0.22909069 0.3564323
000390 aa 85 68 3e 98 65 45 3e 92 10 65 3e 8d 3c 6e 3e
       0.22707239 0.19277036 0.22369602 0.23265286
0003a0 92 4b 13 3e 32 1f 6b 3e a2 a2 08 3e 14 8f 32 3e
       0.14384297 0.22961119 0.1334329 0.17437392
0003b0 d2 96 86 3d 0d cd cc 3c ef 14 7d bd 99 b8 6a bd
       0.065717354 0.02500012 -0.061787542 -0.057304952
0003c0 e7 2d b5 3d 19 b6 6f be 60 8c 6b be 4a c1 88 bd
       0.08846646 -0.23409308 -0.23002768 -0.06677492
0003d0 28 be e3 ba fc 90 52 bd 7c b9 a2 be d9 a7 0e be
       -0.0017375397 -0.0514078 -0.31782138 -0.13931216
0003e0 bf 90 a9 bd d2 82 bb bd 65 44 ba bd b3 eb ef bc
       -0.08279561 -0.09155811 -0.090950765 -0.029287195
0003f0 3c c3 50 be a1 08 e3 bc 6a cd c1 bd e8 03 af 3d
       -0.20386976 -0.027714076 -0.09463008 0.08545667

conv1.bias f4 [6]
000000 4b c6 e5 3d 4b af e7 3d eb c5 ff 3b b6 ea b4 bd
       0.11219462 0.11312731 0.007805576 -0.0883383
000010 ec 28 5d ba 1b a7 9d 3e
       -0.0008436579 0.30791554

conv2.weight f4 [16, 6, 5, 5]
000000 49 7b 9b bc 6a 7d a2 bd 75 25 01 be 8d ed c5 3d
       -0.018979685 -0.07934077 -0.12611945 0.0966445
000010 e0 3c e3 3d 62 44 56 3d be 87 bb 3d f7 1c 3f bd
       0.11095595 0.05231131 0.0915675 -0.046658482
000020 21 62 af 3d f0 24 0b 3e eb 81 10 3d c9 87 0a 3e
       0.085636385 0.1358831 0.03528015 0.1352836
000030 2e 67 ee 3d 45 10 9d bd ac 61 97 3d 06 d5 13 bd
       0.11640774 -0.07669119 0.07391676 -0.036091827
000040 7b a3 fb 3d f6 52 58 3d 55 5d dd bd 4f 06 5b bd
       0.12287041 0.052813493 -0.10808817 -0.053472813
000050 fd e7 ab bd bb d5 cb bc fe 5c a6 bd f5 53 8f bd
       -0.08393858 -0.024882188 -0.081232056 -0.069984354
000060 46 55 23 be 70 3b bf 3d 9b d6 b5 3d 61 ed 84 3d
       -0.15950498 0.09337509 0.08878823 0.06490589
000070 12 f8 0b 3c ce 67 dd 3d 72 13 6f bd 92 44 1e bc
       0.008543031 0.10810815 -0.058368154 -0.009659903
000080 37 14 28 bd 60 a0 ba bd 37 0b 36 3a 10 77 8e bd
       -0.041034903 -0.0911262 0.000694442 -0.06956303
000090 8a df e7 3c ff d9 8f 3c 99 65 e6 bd 3e f2 82 39
       0.028304834 0.017560003 -0.11249847 0.00024976017
0000a0 5f 69 6e be ea 19 28 be 4d 10 d4 bd e3 6e 52 be
       -0.23282383 -0.16416135 -0.103546716 -0.20550112
0000b0 1b 3b e1 bb 77 aa 8f be c9 bf 5c be f6 98 65 be
       -0.006873501 -0.28059742 -0.21557535 -0.22421631
0000c0 d2 45 79 be f1 be 3d be 4d 3c 41 bd 7c 37 01 be
       -0.2434304 -0.1852987 -0.047176648 -0.12618822
0000d0 78 3f 0f 3c a3 d9 12 bd df 31 74 bd c5 87 6a 3d
       0.0087431595 -0.035852086 -0.059617873 0.057258386
0000e0 99 19 f6 3b 3d 1a c9 bc 3d 0f e3 3c e9 67 2a bc
       0.0075103757 -0.024548644 0.027717227 -0.010400751
0000f0 4e 25 86 bd 1a 74 83 3d c4 d3 58 3c 36 5c 5f bd
       -0.06550084 0.06418629 0.013234083 -0.0545313
000100 33 a7 6c bd 3a 60 a8 bc ce 81 76 3c be 67 44 3e
       -0.05777664 -0.020553697 0.015045596 0.191802
000110 56 71 4e 3d cf bb ae 3d e5 7f 23 bd ca 6a 91 bd
       0.050401054 0.085319154 -0.03991689 -0.071004465
000120 3c bd 0b be 12 a7 bd bc 29 65 98 bd 1b dc 10 3e
       -0.13646406 -0.023150954 -0.0744117 0.14146464
000130 7a e9 4c 3d 2e 4f 97 3d b8 6f 83 3c a5 78 8c 3d
       0.050027348 0.07388149 0.016044483 0.068589486
000140 00 99 d4 3d a6 6d 00 3e 8a 2f 01 3e 0b 0c 1e 3e
       0.10380745 0.12541828 0.12615791 0.15434282
000150 1c 72 60 3d b3 98 a8 3d 08 1f c6 3d e8 9a c4 3d
       0.054796323 0.0823225 0.096738875 0.095998585
000160 5b 4e 40 3e 8c 48 3c 3e f8 74 02 bd 8e 5b fc 3d
       0.1877989 0.1838705 -0.03184983 0.1232215
000170 25 88 0a 3e 33 be 2b 3e 54 4b 61 3e c7 50 cc bd
       0.13528498 0.16771774 0.22001392 -0.099763446
000180 4b c0 a0 bd 18 57 82 be 01 32 b2 bd 51 e4 d2 3c
       -0.07849177 -0.25457072 -0.08700944 0.025743635
000190 30 82 a7 bd 07 28 97 bd 93 2f 2b be 63 2c 31 be
       -0.08179128 -0.073806815 -0.16717367 -0.17302088
0001a0 36 35 83 be d3 35 7c 3d 3d dc 94 3d 1f 47 b2 bd
       -0.25626534 0.06157477 0.072685696 -0.087049715
0001b0 e9 b5 2b be f6 81 6e be 20 ef b2 3c 34 d7 50 3d
       -0.16768612 -0.23291764 0.02184254 0.050986484
0001c0 f3 5f a7 bd 6b ca 22 3d 9f 0d bd bc 76 51 d5 bc
       -0.08172598 0.039743822 -0.023077784 -0.02603982
0001d0 d9 eb e7 3d 3c 38 47 3e dc 84 2d 3e 1a 5c b2 3c
       0.11324281 0.19455045 0.16945213 0.021772433
0001e0 37 87 c5 bd df 01 45 3b 1c 4f 0e 3e 9a b7 20 3e
       -0.09644931 0.003006093 0.13897365 0.15695038
0001f0 de 3a 38 3e 90 4c 06 3e 21 52 a0 3d eb 92 7c bd
       0.17991206 0.13115144 0.07828165 -0.06166355
000200 36 58 55 3d 71 0f 1d bd 4c 01 39 3e 8e fa d9 3d
       0.052086078 -0.038344804 0.18066901 0.10643493
000210 34 da 0b 3c 89 4c ca 3d 4d bf 1a bc 07 8b 77 3d
       0.00853591 0.09877879 -0.009445024 0.06043532
000220 16 e8 83 bd 0e ea db bc ba 0d 1c 3c 31 6a fa bd
       -0.06440751 -0.026845004 0.009524757 -0.12227286
000230 e1 c6 a8 3d 8d 19 57 bd 60 f8 c6 ba c8 28 23 be
       0.08241058 -0.0525146 -0.0015180223 -0.15933526
000240 43 e8 1d be 91 65 b4 3c 2a b4 0d 3d 72 5e f3 bc
       -0.15420632 0.022021087 0.034595646 -0.029708121
000250 3a 56 0d bd 8e 1a 00 be a5 fe 92 bd 9a d0 2f bd
       -0.03450606 -0.1251013 -0.07177476 -0.042923547
000260 d3 20 bd bb 59 f6 a4 3c 39 b6 05 bc 23 5d 59 bd
       -0.005771735 0.020136999 -0.008161121 -0.053067338
000270 9c 74 d3 bc 98 21 d5 3d d4 4a a2 bd 47 80 8c bd
       -0.02581244 0.10406798 -0.079244286 -0.068604045
000280 4e 36 6c bc e7 68 c8 bd e1 f7 bb bc 5d d4 33 3d
       -0.014417244 -0.097856335 -0.022945346 0.043903697
000290 9c 3a 98 3c 45 72 35 3e 34 9f fd 3d 85 95 ce 3c
       0.018582635 0.17719372 0.12383881 0.02521778
0002a0 af 20 8a 3c ca 69 2f bc b3 a9 9b bd 6f 46 6a 3d
       0.016861288 -0.010706374 -0.07600727 0.057196077
0002b0 9d c1 a0 3d a5 21 d8 3d 32 16 3c 3c 31 b7 83 bd
       0.07849429 0.10553292 0.011479901 -0.06431425
0002c0 12 ed 4a be 52 ac a1 bd 2b 00 b1 bd d8 6d aa bc
       -0.19816998 -0.078941956 -0.0864261 -0.02080433
0002d0 9e 85 1a 3d 1f 20 12 be 08 33 25 be 98 47 97 bd
       0.037725084 -0.14270066 -0.16132748 -0.07386702
0002e0 64 b2 66 bb e0 a5 61 bc 11 f9 71 bd 9b ae b4 bc
       -0.0035201544 -0.013772458 -0.05907542 -0.022055915
0002f0 20 60 24 bc c0 d6 a2 3d 04 4c 5a bd 4c 67 0c bd
       -0.010032684 0.079511166 -0.05329515 -0.0342782
000300 3e a8 b2 3d 54 99 1e 3d 66 72 b4 3d c2 64 79 3d
       0.08723496 0.038720444 0.08810882 0.060887106
000310 8a c5 00 bd 91 db 77 3d e3 a2 71 3d 35 d2 05 3e
       -0.031438388 0.06051213 0.05899323 0.13068469
000320 e1 31 3e 3e e4 2d 04 3e aa 84 51 bd 8b 10 93 3c
       0.18573715 0.12908131 -0.05115191 0.017952224
000330 40 cc 66 3d f3 2f 8c 3d b6 6c ed 3c cb 0f b1 3d
       0.05634713 0.06845083 0.028982501 0.086455904
000340 17 a4 42 bd e7 79 2d 3d c3 52 66 3e d4 86 d7 3c
       -0.04751977 0.042352583 0.22492509 0.026309408
000350 eb c4 cb bd bc c3 5e bd c8 88 84 bd 23 c7 2e 3e
       -0.099496685 -0.054385886 -0.064714015 0.17068152
000360 b6 c8 5f 3e 32 10 be 3d c5 ff 87 3d b1 96 c7 bd
       0.21853909 0.09280433 0.06640581 -0.09745539
000370 b1 76 4c bd ba 28 d2 3b 8b dc 56 3d 9d c9 05 3e
       -0.04991788 0.0064135464 0.05245642 0.1306519
000380 e8 87 86 3d 96 6d 0c be ee 75 c7 bd 99 6e be bc
       0.06568891 -0.13713679 -0.0973929 -0.023246096
000390 c6 81 02 3b 31 b5 9c bd e4 28 e9 bd d5 d5 f9 bd
       0.0019913777 -0.07651747 -0.113847524 -0.12198988
0003a0 7d d3 8d bd d7 fb 2e be 5c f6 06 be a7 33 ec 3d
       -0.06925104 -0.17088257 -0.13179916 0.115332894
0003b0 ab 73 0e be 98 38 17 be 12 5d e6 bd c1 9e b2 bd
       -0.13911311 -0.14767683 -0.112482205 -0.08721686
0003c0 65 a1 45 3e ec ca 1f 3e 98 57 04 3e 02 72 a0 bd
       0.19299848 0.15604752 0.1292404 -0.07834245
0003d0 79 4e 16 be 29 71 a1 3d 8a b8 20 3e 40 3d 45 3e
       -0.14678372 0.07882912 0.15695396 0.19261646
0003e0 cd 87 12 3e de e6 80 3d f9 d2 ef 3d c0 62 68 3d
       0.14309616 0.062940344 0.11710162 0.0567348
0003f0 eb 00 e2 3d e2 e6 56 3c cc 1f 2a 3b be d1 52 3d
       0.11035331 0.01311657 0.0025958894 0.051469557

conv2.bias f4 [16]
000000 a4 0f 5e be 76 58 f2 3c c7 1c 8b be a4 f7 a5 3d
       -0.21685654 0.029583197 -0.27170393 0.08103874
000010 08 84 71 3e e6 0d 25 3e 01 40 81 bd 35 37 eb bc
       0.23585522 0.16118583 -0.06311036 -0.028712848
000020 98 02 a4 3e 34 55 b3 3c ec 50 af 3e 79 14 22 be
       0.3203323 0.021891214 0.34241426 -0.15828122
000030 4e b8 03 be 13 19 fd bd e7 5b 10 bd 91 7b bd 3d
       -0.12863275 -0.12358298 -0.035243895 0.09252084

fc1.weight f4 [120, 400]
000000 9a e1 87 3c 4a ee e6 3c 1a 46 75 bc 9e e6 6d 3c
       0.016587067 0.028189797 -0.014970327 0.014520315
000010 ce 0e 0c bd 88 11 87 3d a5 08 cf 3d e3 ec 1d bc
       -0.034193806 0.06595141 0.10109071 -0.009638998
000020 e8 91 0f 3b 00 55 3b 3b 0e 6f ba 3c b6 ca 3c bb
       0.0021907035 0.00285846 0.022758033 -0.0028807349
000030 85 52 0c be a6 2d 84 bd f5 05 8e 3d 3d 07 41 bd
       -0.13703354 -0.06454019 0.0693473 -0.047126044
000040 20 43 75 bc fc d9 0d bd e6 7e 1f bc 80 dc 2e bd
       -0.014969617 -0.034631714 -0.009734845 -0.042690754
000050 51 73 f1 bd 22 80 a9 bd a0 46 3a bd d2 66 1f 3d
       -0.11789573 -0.082763925 -0.04547751 0.038916416
000060 41 4e bf 3d b4 33 a7 bc 08 31 36 bd 83 3a 74 be
       0.093410976 -0.020410396 -0.044480354 -0.23850445
000070 cd d2 61 be 57 ac 8e be 9f e0 63 3d 0d 2b a0 3b
       -0.2205307 -0.2786586 0.055634137 0.0048879446
000080 80 aa fe bc 92 72 83 bd cc 84 0d be 2d 0b 30 3b
       -0.03108716 -0.06418337 -0.13820189 0.002686213
000090 b3 74 d4 3d 3a e0 fc 3d ea d9 95 bc 42 63 49 3d
       0.10373821 0.12347455 -0.018292386 0.049166925
0000a0 21 45 43 bd 22 85 a6 3d b3 07 e4 3d 0c 1a d8 3c
       -0.04767335 0.08130862 0.11134281 0.026379608
0000b0 a4 a3 47 3d be a3 2a bd a6 23 08 be 60 7f f5 bd
       0.048740044 -0.041660063 -0.13294849 -0.119871855
0000c0 1e 92 26 be bd 91 50 3d ca 51 b2 3d b1 cc fd bc
       -0.16266677 0.050920237 0.08707006 -0.030981394
0000d0 cb d1 1f be 70 c2 c4 bd 53 15 c7 bd c4 d5 b3 3d
       -0.15607373 -0.096073985 -0.09720864 0.08781007
0000e0 87 10 d8 bb 9c e3 81 bd ad 57 30 bd e8 93 1e 3e
       -0.006593767 -0.06342241 -0.043052364 0.1548611
0000f0 f8 f8 dc 3d ab 06 eb bd e0 8c 5c ba 53 06 91 3d
       0.107896745 -0.11475881 -0.0008413326 0.070812844
000100 00 57 16 3d be 7d c8 3c 9f 20 a3 bc b7 4e 89 3d
       0.036704063 0.024474021 -0.019913016 0.06704467
000110 b9 52 af 3c 4e cf ac bc 06 12 05 3d d9 f2 11 bb
       0.02140175 -0.021094944 0.03248789 -0.0022269993
000120 62 33 42 bd cf 75 60 3d 91 91 79 bd 22 b9 4c bd
       -0.047412284 0.05479985 -0.06092984 -0.049981244
000130 8a cf a7 3d 59 c0 66 bc bd 66 4b 3c 28 54 23 bd
       0.08193882 -0.014083945 0.012414631 -0.03987518
000140 a5 12 15 3c 76 f4 62 bd 8e a8 0c 3d 15 a8 96 3d
       0.0090986835 -0.055408917 0.034340434 0.07356278
000150 7e f0 3e 3d 04 a1 1d 3e b7 3c 73 3d fe 1c cd 3d
       0.04661607 0.15393454 0.059384074 0.100152954
000160 61 d6 28 3c 27 7a dc 3c a3 3a 39 3d 58 ac ac 3d
       0.010305018 0.026913716 0.045221936 0.084313095
000170 4a c8 fe 3c ab aa 91 3c fd d9 97 3c c0 13 ea 3d
       0.031101365 0.017781576 0.018536562 0.11429548
000180 bc ba f0 3d d1 30 6d 3d ec 49 8d 3d 42 c8 c3 3d
       0.11754367 0.057907883 0.06898865 0.095596805
000190 d3 80 10 3e 30 a9 20 be a3 2a 97 3c 3a 0f ee 3b
       0.14111643 -0.1568954 0.018452948 0.0072649987
0001a0 1f f5 d6 bc 30 f1 44 3d a9 ff ec 3c 94 e6 b9 3d
       -0.02623993 0.048081577 0.028930502 0.090771824
0001b0 9d 62 9b 3c da 7d 77 bd 4c 75 50 3c ac 5e 05 3e
       0.01896792 -0.060422756 0.012723278 0.13024396
0001c0 bb 47 6f 3d d5 2e 95 3c 34 5b 5f bc 79 33 2c 3d
       0.058418017 0.018210808 -0.013632584 0.042041276
0001d0 40 17 06 3e ba ef 40 3e b8 89 1e bd f7 33 ab 3c
       0.13094807 0.18841448 -0.038705558 0.020898802
0001e0 1b e0 2b 3b e7 c2 64 3d c0 49 c1 3d 56 df 55 3c
       0.0026226107 0.055849936 0.09437895 0.013053736
0001f0 08 af 13 3d 7e 66 1f be 87 d8 a8 bd 28 72 09 bd
       0.036055595 -0.15566441 -0.08244424 -0.033556134
000200 24 60 07 be b9 65 0c be a2 35 2f bc c1 8f d3 3d
       -0.13220268 -0.13710679 -0.010693939 0.10330153
000210 d0 bb 86 3b c3 d9 b7 bd 29 63 13 3d b6 fc 04 3e
       0.0041117445 -0.089770816 0.03598324 0.12987027
000220 00 29 e8 bb 24 b0 c2 bc 8e a3 f6 3d 88 65 11 3d
       -0.0070849657 -0.023765631 0.12042914 0.03549722
000230 e6 09 bd 3d c4 5a 8a 3d 88 c1 b0 bc c0 af 6c 3d
       0.092304036 0.067555934 -0.021576658 0.057784796
000240 49 3e 0c 3c e1 12 e2 3d 80 bb c9 3d 14 a9 2e bc
       0.008559772 0.11038757 0.09850216 -0.010660429
000250 d6 cd 51 be 79 e0 91 be aa 80 3c bd ba 58 19 bd
       -0.20488676 -0.28491572 -0.04602114 -0.037438132
000260 aa 09 f4 3c d8 69 eb 3b 54 3c 51 3d 20 97 9d bd
       0.029789764 0.0071842484 0.051082924 -0.076948404
000270 44 51 88 bb 34 98 72 bd c9 20 37 3b af 6b ba bc
       -0.0041600782 -0.059227183 0.0027943125 -0.022756426
000280 be 30 d8 3c b4 92 e2 ba d4 1b 2b bd 0e d7 bd 3c
       0.02639043 -0.0017286153 -0.041774586 0.023173835
000290 90 f7 af 3d 64 9b 95 3b bf ec 40 bd 1a 91 94 bd
       0.08592141 0.004565643 -0.04710078 -0.072542384
0002a0 74 19 8b bd fc 6c 60 bd e5 6f 96 3d 84 f2 8c ba
       -0.06791964 -0.054791436 0.07345561 -0.0010753428
0002b0 a0 c2 5c 3c 74 74 b9 bd f8 ab 57 be 7f bf b9 bd
       0.013474137 -0.09055415 -0.21061695 -0.09069728
0002c0 0c 7d e8 bd a6 a1 b0 3c 2e eb 01 bd a8 10 20 bd
       -0.11351976 0.021561455 -0.031718425 -0.039078385
0002d0 6f a5 78 3c e3 85 1f bd 1b 98 2b 3d a7 8d d6 3c
       0.015176161 -0.038946044 0.041893106 0.026190592
0002e0 10 56 fb bc 32 16 dd bb 50 5f 8b 3d 2d 98 01 3e
       -0.030680686 -0.0067470307 0.06805289 0.12655707
0002f0 0f e3 16 3e 66 fb 90 3d 51 49 9d bd b0 3f 2f 3c
       0.14735053 0.070792004 -0.076799996 0.010696337
000300 5b 6f 95 3c 44 22 7a 3b 42 28 76 3d 27 78 9a bd
       0.018241575 0.0038167397 0.060096987 -0.075424485
000310 ce 99 8a bc c0 6f 6a bd cc eb ae bd 59 36 b1 3d
       -0.016919043 -0.05723548 -0.085410684 0.08652944
000320 2f 94 6a 3d 7a 9f 07 bd 9c b9 13 3c e0 b4 4c bc
       0.057270225 -0.033111073 0.009016421 -0.012494296
000330 5c 92 f5 bb a1 c5 b7 3d 10 f9 df bd 68 6e 8c bd
       -0.007494254 0.089732416 -0.10936177 -0.06856996
000340 82 4d 05 3e ee 72 9a 3d 3e 0a 2f 3c 5e 8a 99 bd
       0.13017848 0.07541452 0.010683594 -0.074970946
000350 c5 db 94 bd c3 03 18 3a 73 f1 7d 3d e4 ea 33 3d
       -0.0726848 0.00057989004 0.061997842 0.04392518
000360 57 28 df 3a 7a a3 4f 39 7f d0 12 be 97 12 7c bc
       0.0017025572 0.00019801958 -0.14337347 -0.015385292
000370 8e a1 a5 3c e7 34 53 3d 3a 7b 6b 3d d2 49 35 3c
       0.020218637 0.051564123 0.057490565 0.011064963
000380 7d 25 9c 3d 98 88 35 bd 85 17 8c bd 6c df 31 3b
       0.07624338 -0.04431972 -0.068404235 0.0027141226
000390 8e 2c c1 3d 58 4c 34 be 10 b6 18 3d b1 f1 4c 3d
       0.09432326 -0.17607248 0.037283003 0.050035182
0003a0 64 b6 72 bd f1 5b da bb 60 aa 3c be c9 89 ee 3d
       -0.059255973 -0.0066637923 -0.18424368 0.11647374
0003b0 7d 09 8c 3d d1 d7 b2 bd 1a 5b 6f bd 27 3a 23 bd
       0.06837747 -0.0873257 -0.05843649 -0.03985038
0003c0 90 b3 02 3b 59 95 25 bc 47 f3 b5 bd f4 1e 7a 3d
       0.0019943453 -0.010106408 -0.08884292 0.061064675
0003d0 07 aa 8b bd 51 40 44 bd 31 0e e8 3d fa f6 11 3e
       -0.068195395 -0.0479129 0.11330832 0.1425437
0003e0 22 e8 20 3e e7 c2 aa 3d 80 0f c0 bd b5 6a 89 3d
       0.15713552 0.08337956 -0.093779564 0.06709806
0003f0 07 a0 d2 3d c6 d0 17 bc 57 52 01 be 60 e8 b1 3d
       0.10284429 -0.009266084 -0.12629066 0.086869

fc1.bias f4 [120]
000000 8c aa b4 3e a6 4c 38 bc 7c 65 80 3d f2 60 3b bd
       0.35286367 -0.011248743 0.062693566 -0.04574675
000010 57 5f d4 3e 69 38 3f bd 7b f2 8c be ab 07 59 3e
       0.4147899 -0.046684656 -0.27528748 0.21194331
000020 46 ae 11 3e 65 de 05 3c 3b a1 a3 3e dd a1 f0 3e
       0.14226636 0.008170699 0.31958947 0.46998492
000030 58 c4 89 3e 19 8b 7e 3e 7b 2d 3f 3e 9a 27 7e 3e
       0.2690761 0.24857749 0.18669693 0.24819794
000040 77 d7 d7 3d cd 03 fd bc fe 6e 07 be 49 a6 c9 3e
       0.105391435 -0.030885601 -0.13225934 0.39384678
000050 01 74 6b be 3f b4 0e 3e 84 ea 7e bb cc 4e 17 3d
       -0.2299347 0.13935946 -0.0038897106 0.03694038
000060 e8 ed ca 3c 16 13 33 bd bc a1 3c 3e 24 c9 d3 bc
       0.024771646 -0.043719374 0.18421072 -0.025852747
000070 4e 33 b7 3d 6f 47 da 3c d8 71 6a 3e 34 32 10 3d
       0.089453325 0.02664539 0.2289499 0.035204127
000080 53 09 4c 3e 77 74 bf 3c cd 79 13 bc ac de e7 3c
       0.19925432 0.023370964 -0.009001208 0.02830442
000090 0e 65 39 bd b9 b2 a7 3c e5 ba 88 3e c5 a5 14 3e
       -0.04526239 0.020470964 0.2670509 0.14516361
0000a0 98 dd 0f bd 1d b1 89 bd 0a ac 1b 3e c5 b4 40 3e
       -0.035123438 -0.06723235 0.15202346 0.18818958
0000b0 77 85 9b bd 4a df 94 3b 7b e5 02 bc 61 b6 9e 3e
       -0.07593816 0.0045432197 -0.007989283 0.3099852
0000c0 5f db a2 3e d9 ce de 3d 2e 6a 48 be 8a 99 24 3e
       0.31807992 0.10879297 -0.19571754 0.16074196
0000d0 10 45 b8 3e d6 27 56 3e e8 3a 4d 3e 9d 8b 22 3c
       0.3599019 0.20913634 0.20042002 0.009920982
0000e0 e1 c7 1d 3e e0 18 92 be 28 46 81 3d ef 6a 19 bd
       0.15408279 -0.28534603 0.06312209 -0.037455495
0000f0 0a 0c 75 3d 1e 89 20 3e 5f 83 03 3f 92 50 e0 bd
       0.059825934 0.15677306 0.5137233 -0.109528676
000100 de 34 8e bc 46 1a 8d be f5 94 a9 bd d3 6a 39 bc
       -0.017359193 -0.27559108 -0.082803644 -0.011316973
000110 32 de bd be 71 4c 0c bd e7 c1 20 bd 3d c0 1e 3e
       -0.37083584 -0.034252588 -0.03924742 0.1550302
000120 4c cd 19 bd ee a4 2b 3e 4c f8 bb 3c 34 61 4f bd
       -0.037549302 0.16762134 0.022945546 -0.05062981
000130 4a a5 56 be 14 c7 21 3b ae 30 34 3e 56 b4 57 3e
       -0.2096149 0.002468531 0.17596695 0.21064886
000140 3a 10 f6 3d cc ee 92 3d e3 6b 42 bd 37 9d 7b 3e
       0.12014814 0.07174453 -0.04746617 0.24571691
000150 4d 5c 1a 3e 75 20 b8 bb cd 30 1a 3e 15 bc 26 3c
       0.15074272 -0.0056191036 0.15057679 0.010176678
000160 a7 48 a7 bd 84 a4 06 3d 37 18 32 3e e4 2e 1a 3d
       -0.08168154 0.032871738 0.1739205 0.037642375
000170 58 b6 8c be 0d 03 4e 3d 2f 91 83 bc d5 7c 6c bd
       -0.27482867 0.05029588 -0.01606044 -0.057736237
000180 fc 07 cc bd 68 29 65 bd fc 54 93 be 86 8d e5 bb
       -0.099624604 -0.05594769 -0.28775775 -0.0070053963
000190 2f d3 16 bd 4b 9a 7c bd 28 21 9f bd 35 85 f6 bb
       -0.036822494 -0.061670583 -0.07769996 -0.0075232037
0001a0 e1 fa ad 3d f8 be f1 36 2f 77 f6 bd e6 3f eb bd
       0.08495117 7.2045914e-06 -0.12034451 -0.11486797
0001b0 d4 8e a2 3e 0f f5 75 bd 4c 10 b1 bd df 14 66 bd
       0.31749594 -0.06004816 -0.086456865 -0.056172248
0001c0 8e 2a cb 3d 1d 10 b6 3d 42 69 1c bd 42 6c d8 3e
       0.09920226 0.08889792 -0.03818632 0.42270094
0001d0 1f c7 81 bc a7 35 a3 3e aa b9 28 3e 01 b9 99 bc
       -0.015842019 0.3187687 0.16477075 -0.018764975

fc2.weight f4 [84, 120]
000000 fe e0 e8 bd dc 50 e2 bc 2c 8a 9c 3d 10 9e ad bc
       -0.11371039 -0.027626447 0.07643542 -0.021193534
000010 aa 2a 36 3e f3 cb 20 3d 42 8a 9c 3d 62 68 30 3c
       0.17789713 0.039257 0.07643558 0.010767074
000020 10 1d 70 3e 5f ca e0 bb a6 dc 4c 3e da 79 87 bc
       0.23448586 -0.006860062 0.20006046 -0.016537596
000030 46 dd d9 3c 7d 5d c7 3d 19 5d 7e 3d b7 0b 3b 3e
       0.02659477 0.09734628 0.062100504 0.18266188
000040 23 b7 df bd 60 df 07 3d b3 11 04 3e 53 9d c3 3d
       -0.109236024 0.03317201 0.12897377 0.095514916
000050 2a 91 bd 3d eb 14 0d be b7 a0 d8 bd e5 a7 55 bd
       0.092562035 -0.13777511 -0.10577529 -0.05216207
000060 39 32 5e 3d 98 d4 b6 3d 0d bc f2 bd 7b bd 62 bd
       0.054247115 0.08927268 -0.11852274 -0.055356484
000070 dd bf da 3d 5a 22 08 be 8e 02 ca bd 10 42 81 bd
       0.10681126 -0.13294354 -0.098637685 -0.063114285
000080 7f b9 b0 bb 53 b2 a9 3e 12 e2 66 3b 17 3e 31 3e
       -0.0053932066 0.33143863 0.0035229963 0.17308842
000090 7c 71 2a 3d 96 de 84 3c c8 21 f6 bd 8d 06 d7 3d
       0.041612133 0.016219418 -0.12018162 0.10499296
0000a0 d9 e1 40 3d 99 0b 96 3d 73 71 2a bd df bb 1c bd
       0.047090385 0.07326431 -0.0416121 -0.038265105
0000b0 69 e6 8f bd df 75 42 bd a8 89 f5 bc b9 66 30 3e
       -0.07026369 -0.047475692 -0.029972866 0.17226686
0000c0 c8 e1 18 be 43 15 90 bd d5 1c 5e bd a1 dc fe bc
       -0.14929879 -0.07035305 -0.054226715 -0.031111063
0000d0 3c 24 90 bd 5d d4 02 be 8d 77 f4 bd f6 18 97 3d
       -0.07038161 -0.12776323 -0.11936865 0.07377808
0000e0 7b f5 2e be 9e 59 69 3e c2 d2 c1 3d 76 b8 d4 bd
       -0.17085831 0.22788092 0.09464027 -0.10386746
0000f0 ff c3 5f 3e 35 21 9c 3d 89 4d 04 3d a7 df 40 3d
       0.2185211 0.07623521 0.032300506 0.04708829
000100 0e 49 47 bd a4 0a 5e 3d db 0e 6d bd 57 46 c6 bd
       -0.048653655 0.054209366 -0.057875495 -0.09681385
000110 10 77 83 3b 02 61 56 3b 01 6c 3b bd 85 d2 8d bb
       0.004011996 0.003271163 -0.045757297 -0.0043280744
000120 9e 77 95 bd 17 14 21 3d ed 0b 31 3d 60 fa f9 3b
       -0.07298206 0.0393258 0.043224264 0.007628724
000130 61 b5 8e bd 81 e1 34 3c 4d 45 10 bb 18 56 42 be
       -0.06968189 0.011040092 -0.0022013963 -0.18978155
000140 9a 17 50 bd b6 44 cc 3d c7 6f ff 39 dd c2 5e 3e
       -0.05080376 0.09974043 0.0004872067 0.21754022
000150 da 26 87 3c a8 79 2f 3c bc 5d f6 bd 16 f4 8f bd
       0.016498018 0.010710157 -0.12029597 -0.070289776
000160 66 39 bb bd e1 2c 30 3d 79 76 5d 3e fc 7f e7 3c
       -0.09141807 0.04301155 0.21627225 0.02825927
000170 ca 97 fa 3d da 38 59 3d 8a b8 0b 3e 10 55 85 bc
       0.12235983 0.053032734 0.13644615 -0.016275913
000180 da 84 a3 bd 4e 3d 3f 3b 81 85 0e 3e 78 ac 7f bd
       -0.07984324 0.0029180828 0.13918115 -0.06242034
000190 d6 56 84 bd b8 46 b7 3d bf 8a 87 3e a7 fe 02 be
       -0.06461875 0.089490354 0.26473042 -0.12792455
0001a0 57 59 fd 3d 1d 40 8f 3e 83 96 61 bc 43 16 f8 bb
       0.12370556 0.27978602 -0.013768795 -0.007571013
0001b0 ce 2f 3d 3e 58 79 ea bb 9e cd 07 be 43 97 09 bd
       0.18475267 -0.0071555786 -0.1326203 -0.03359152
0001c0 54 a0 5e 3d 5d 3e b2 3d 28 a7 01 bc 05 c1 3c 3d
       0.05435212 0.08703301 -0.007913388 0.046082515
0001d0 c0 23 1d 3d 04 ff 63 bd e8 7e 8e 3c 75 07 ee bc
       0.038364172 -0.055663124 0.017394498 -0.02905629
0001e0 c0 1f 3f 3d d5 71 b6 bd 94 59 40 bc dc 37 a3 3c
       0.04666114 -0.089084305 -0.011740107 0.019924097
0001f0 dc 9e 85 bd 8c 01 ad bd e3 ad c1 bd 55 a9 80 bd
       -0.06524441 -0.08447561 -0.094569944 -0.062822975
000200 27 d3 e6 bd 98 a8 5c 3b 61 8a 1d be 03 4b 5a bd
       -0.11270743 0.0033669826 -0.15384819 -0.053294193
000210 d4 49 96 bc ff 94 9b bc 87 ed 42 bd d7 22 9a bd
       -0.01834575 -0.018991945 -0.047589805 -0.075261764
000220 7a 34 54 3c 3d 59 be bc 91 00 bc bc 48 35 c0 3c
       0.0129519645 -0.023235912 -0.022949489 0.023462906
000230 58 61 b0 3b 98 9f ec bd e0 24 09 3b 3c 84 58 3d
       0.005382698 -0.115538776 0.002092652 0.052860484
000240 78 61 e8 3c 84 62 fd bd 10 5f 09 be cc 62 f3 bc
       0.02836679 -0.12372306 -0.1341517 -0.029710196
000250 c4 8d 69 bd 08 71 46 bd 86 c3 2c 3d c0 41 eb bb
       -0.057019964 -0.04844764 0.042178653 -0.007179469
000260 61 0a f0 bc f4 14 19 3d e0 1d 4b 3d ea e7 0e 3d
       -0.029301824 0.037373498 0.049589038 0.03488914
000270 78 92 96 bd 28 55 15 3c f0 3a f8 bd 49 7c b8 bd
       -0.073521554 0.009114541 -0.121206164 -0.090080805
000280 53 75 6c bd 7c 6d aa 3d d2 60 21 3d 10 7e 9a bd
       -0.057729077 0.08321664 0.039398976 -0.07543576
000290 c3 fe a6 bd 20 7d 3a 3c 22 03 a1 bd 1d 98 bb bc
       -0.08154061 0.011382371 -0.07861926 -0.022899682
0002a0 34 7a f9 bc 3f e5 07 3d 44 e2 87 3d 77 e7 1e bd
       -0.030453779 0.03317761 0.066349536 -0.03879496
0002b0 2f 3f 3e 3d 67 dc ca bd 58 dd 03 bd a8 b9 96 bd
       0.046446975 -0.0990532 -0.03219351 -0.0735963
0002c0 46 72 20 bd 39 ef 18 bc a4 d3 1c 3d d4 c8 a2 bd
       -0.03917148 -0.009334379 0.038287774 -0.07948461
0002d0 b9 8b 7e bd fe d7 93 3c d8 e4 c9 3d cd ad 54 bc
       -0.06214497 0.018047329 0.098581016 -0.01298089
0002e0 4e e9 78 3d 92 18 48 3c 12 f5 86 bd c0 1e 8a ba
       0.06076937 0.012212889 -0.06589712 -0.0010537729
0002f0 fd 15 42 3d 30 dd e6 3b ab 3d 5c bd f6 a6 00 be
       0.04738425 0.0070454106 -0.05376975 -0.1256369
000300 50 68 04 bc d6 25 df bc a0 03 b4 bd d0 7f 3e 3d
       -0.008081511 -0.027239721 -0.08789754 0.04650861
000310 e5 c7 e5 3c d0 cb 56 3d 25 30 99 bd 35 2c 59 3d
       0.028049419 0.052440464 -0.07479886 0.053020675
000320 13 fa 2b bd c7 15 36 3c 2c 34 f0 bc 56 40 92 bd
       -0.041986536 0.011113591 -0.029321752 -0.07141177
000330 3a 4b 18 bc dd 03 9d 3d 0c 48 86 bd c4 13 28 3d
       -0.009295279 0.076667525 -0.065567106 0.041034475
000340 93 14 6c bd 00 92 b5 bd 66 42 3f bd 11 fc b0 3c
       -0.05763681 -0.08865738 -0.04669418 0.02160457
000350 a0 01 04 bd 38 58 3d 3c a1 5e ef bb ec 54 ed 3c
       -0.032228112 0.0115566775 -0.007304982 0.028971158
000360 a3 e6 88 bd f5 a3 39 3d 8f dd 6a bd 48 74 65 3c
       -0.066846155 0.045322377 -0.0573402 0.014004774
000370 10 10 54 3c 32 02 b3 bd 50 81 a4 bc ca a0 97 bd
       0.012943283 -0.08740653 -0.020081192 -0.07403715
000380 6e e8 cc bd 53 d9 11 bd 85 07 61 bc 91 b6 ae bc
       -0.1000527 -0.035607647 -0.013734703 -0.021327289
000390 32 2d 90 bd b4 39 e4 bc 68 6c bc bd 5f da 8b bd
       -0.0703987 -0.027859546 -0.09200364 -0.0682876
0003a0 e5 d5 22 bd 23 c1 ad 3d ec 73 e0 3c 1d 6c 89 bc
       -0.039754767 0.084841035 0.027399026 -0.016775185
0003b0 50 f4 ee bb 5b 63 1b bd c5 f0 af bd 81 25 50 3d
       -0.007292308 -0.03793655 -0.08590845 0.050817017
0003c0 03 11 de bd 49 cd 8b 3c 56 36 91 bd eb 4f 5c 3c
       -0.108430885 0.017065661 -0.07090442 0.013446788
0003d0 30 6f 12 be c3 25 a5 bd a2 9d 99 bd d9 61 0c bc
       -0.14300227 -0.08063843 -0.07500769 -0.008568251
0003e0 68 3c 06 3d 98 ed fc 3c a7 42 27 be 77 36 a7 bd
       0.03277245 0.030875012 -0.1633402 -0.08164685
0003f0 f0 09 22 bd 0c de 1e bd 29 23 49 bc ee ef de bd
       -0.03956026 -0.03878598 -0.012276449 -0.10885607

fc2.bias f4 [84]
000000 4e 29 23 3d 12 98 aa bd 00 8f 6b bd c6 58 02 3e
       0.039834313 -0.08329786 -0.057509422 0.12729177
000010 4e df 2e be 76 bf 37 bd d6 fd 44 3e 8a 2e 81 bc
       -0.17077371 -0.044860326 0.19237456 -0.015769262
000020 a7 13 33 be 46 f4 ce 3e 31 b9 bb bb 8d 2f e8 bd
       -0.17487966 0.4042074 -0.0057288636 -0.113371946
000030 8b 88 5e 3e 6c 7f f8 bd f0 1f 98 be c8 5e 74 bd
       0.21731775 -0.12133679 -0.29711866 -0.059660703
000040 db ff c1 bd 15 ff 2c 3d 23 55 67 3e b2 4a 1c bd
       -0.09472629 0.042235453 0.22591071 -0.038157173
000050 28 9a 52 bd 04 71 a4 3d bf 98 31 3e f2 97 f4 3d
       -0.051416546 0.080293685 0.17343424 0.11943044
000060 d2 ca 09 bd d1 a1 eb bd 3a a0 2e 3d 46 2e 8d ba
       -0.03364069 -0.115054734 0.042633273 -0.0010771237
000070 20 b4 82 3e ed 3d 85 3e c4 e3 8b bd fc 3b 38 bc
       0.2552805 0.26023808 -0.06830552 -0.01124477
000080 02 b6 bd 3e e3 f5 b8 bd 27 34 64 3e 59 ad 82 bd
       0.37052923 -0.09031274 0.2228552 -0.0638072
000090 0a 97 4c 3e 21 f6 b7 bd 3a ad 4f be 42 86 4e 3e
       0.19979492 -0.08982492 -0.20280924 0.20168403
0000a0 35 5c b4 bd 99 ed 88 3e e6 ef 41 bd 35 be b9 3c
       -0.088066496 0.26743773 -0.047347926 0.022673706
0000b0 2e 7d 1c 3d a0 46 50 3e c9 02 87 3d b5 5a 6a 3e
       0.03820532 0.20339441 0.06592328 0.22886164
0000c0 60 a8 1e bd 71 35 94 3e 11 71 08 3d 34 8c 4c bc
       -0.038734794 0.28947023 0.033310954 -0.012484599
0000d0 bc c3 63 3e 85 6f b7 3e 3d 37 ed bd ef de 2f 3e
       0.22242635 0.3582727 -0.115828015 0.17174886
0000e0 20 c1 6c 3d 7f 8e 78 bd 4e fa 38 3d ae 93 05 3d
       0.057801366 -0.06068277 0.045160584 0.03261154
0000f0 87 b8 32 3e a0 5a b8 3d fe 1a 90 3d 3a dd 98 bc
       0.17453204 0.0900166 0.07036398 -0.018660177
000100 3f 3c b6 bd a6 c3 a7 3d 26 11 ed bd 7e f0 e9 3c
       -0.0889821 0.08191614 -0.115755364 0.028557058
000110 cf 11 6f bc 82 59 18 be 83 60 0f 3e 6d 6c 8b bd
       -0.014591648 -0.14877895 0.1400166 -0.0680779
000120 52 98 58 3e da b2 0a be 3f 1c c9 3d 7d 04 0a be
       0.21151856 -0.13544789 0.09819841 -0.13478275
000130 d8 06 a2 3e 87 7e 6b 3e 9c 3b 05 3e 15 b4 91 3d
       0.31645846 0.22997485 0.1301102 0.07114426
000140 4e 91 75 3e 06 fb d3 bb e2 0c d6 3b bb 9e 51 3e
       0.2398121 -0.0064691333 0.0065322975 0.20470707

fc3.weight f4 [10, 84]
000000 84 03 43 3d 2b 66 bf 3d 3d 84 07 bd e0 81 b8 bd
       0.047610775 0.09345659 -0.033085097 -0.09009147
000010 53 d7 27 3e d0 c4 e3 3d f5 dc 12 be e3 67 0c bd
       0.16390733 0.111215234 -0.14342101 -0.03427876
000020 32 93 66 bc 6d c6 4a be be 66 50 3d 0f 4b fa 3d
       -0.01407318 -0.19802256 0.050879233 0.122213475
000030 d7 ab 61 bd b5 20 ab be fc 84 56 bd b3 4b a4 bc
       -0.05509552 -0.3342339 -0.052372918 -0.020055627
000040 e4 6e 2a be 53 1d 0f 3e d3 54 22 3e 6d 4a ef 3c
       -0.16643864 0.1397603 0.1585267 0.029210294
000050 cd e9 05 3e bc 18 96 3d bf b1 73 be 53 87 8e 3d
       0.13077469 0.073289365 -0.23798274 0.06959405
000060 6c 8a 12 bd ab c6 fc bd 12 41 ed 3d d8 f7 41 be
       -0.03577654 -0.123425804 0.11584677 -0.18942201
000070 94 45 aa 3d 65 15 db bd c8 58 9c bd 1c 3d fa bc
       0.08314052 -0.1069744 -0.07634121 -0.030546717
000080 ef 9b a7 3d 7c 7c 99 3b 83 e3 bb 3d 7c 36 71 3e
       0.08184039 0.004684029 0.09174254 0.2355594
000090 fc 58 14 be 5a 97 d2 bc 17 c2 1f be d8 dd 61 be
       -0.1448707 -0.025706936 -0.15601383 -0.22057283
0000a0 c7 00 9c 3e 7e 18 bb bb 64 bc 10 3e 9a 8a 5f bc
       0.30469343 -0.005709707 0.14134365 -0.013643885
0000b0 e7 50 e4 3d b9 4b 87 be 48 9b bd bc 9c 36 63 be
       0.111482434 -0.2642496 -0.023145333 -0.221888
0000c0 99 11 81 bc 03 2a 38 3e 5b 23 24 3d 5b 63 f3 3d
       -0.015755462 0.17984776 0.04007278 0.11884185
0000d0 87 cd ed bd bc 69 7e bd c1 9d ec 3c 7f 68 04 bc
       -0.11611467 -0.062112555 0.028883817 -0.008081554
0000e0 68 d2 0c 3e 0f 08 9c bc 1a e5 7d be 12 a8 19 3e
       0.13752139 -0.019046811 -0.24794427 0.1500552
0000f0 39 d3 36 3e 8c a3 b1 bd 50 ae 73 3e 34 98 94 3d
       0.17854013 -0.08673772 0.23796964 0.07255593
000100 52 bb 68 3e b4 98 a7 bd b3 00 7e bd 4b 7f 20 3c
       0.22727707 -0.08183423 -0.062012386 0.009795974
000110 cb c1 de bd 35 94 95 bd 04 7a 10 be ab ce ed bd
       -0.10876807 -0.07303659 -0.14109045 -0.116116844
000120 a2 c4 ac bc 7b e6 a2 bd 94 22 07 bb 56 31 e5 3a
       -0.021089856 -0.07954117 -0.0020619975 0.0017486017
000130 c0 d3 df bc 79 9f b7 bd 36 57 48 be 88 9e 90 bd
       -0.02732265 -0.08965964 -0.19564518 -0.070614874
000140 78 b9 15 bd 02 b3 f1 3d b8 10 c6 3d e6 ef 1f 3d
       -0.03655383 0.11801721 0.096711576 0.039047144
000150 23 6c a7 3d c7 1b ec bd b7 71 60 3d b2 f0 6b be
       0.08174922 -0.115287356 0.054795947 -0.23041037
000160 2e 1d 2e 3e 50 79 2c bc a8 7d 09 be d1 e7 0c bc
       0.17003319 -0.01052697 -0.1342684 -0.008600191
000170 58 36 5c 3e d9 d3 20 be 92 ee cc bd d5 0e 19 bd
       0.21505105 -0.15705813 -0.10006441 -0.03736766
000180 15 b3 9c be c7 6a 12 3e da df b0 3d ac 74 00 3e
       -0.3060538 0.14298545 0.08636446 0.12544507
000190 b9 f4 4e bd 46 64 fe 3c 83 40 76 be 05 99 b9 bd
       -0.050526354 0.031053673 -0.24048047 -0.09062389
0001a0 56 5d 98 3d 19 95 c5 3d a2 a4 76 3d 13 c4 b5 bb
       0.074396774 0.09647579 0.0602156 -0.0055470555
0001b0 9a 6a c6 bd 40 5c da 3c a5 97 e9 3d 68 7c 92 3c
       -0.096883014 0.026655316 0.11405877 0.017881587
0001c0 10 60 93 be 9e d0 83 be 47 eb 7f bd 66 d4 9e bd
       -0.28784227 -0.257451 -0.062480237 -0.077553555
0001d0 d5 ca d4 3d 55 ad 10 be 94 84 85 bd b4 77 ca bd
       0.1039025 -0.14128621 -0.06519428 -0.09886113
0001e0 37 92 a0 3d 8f f6 40 bd b1 19 81 3e 84 27 30 3d
       0.07840388 -0.047110137 0.25214913 0.043006435
0001f0 27 c5 23 3e 2a 5c 9a be 11 cc 7e be 5e 89 44 bd
       0.15993176 -0.3014844 -0.24882533 -0.047982566
000200 07 09 91 bd 33 c5 a8 bd a7 89 0e 3c 27 69 1f bd
       -0.070818 -0.08240738 0.008699811 -0.03891864
000210 3f 06 83 bd 0e e4 b7 be ec d0 00 3e f2 37 ed bd
       -0.06397676 -0.3591618 0.12579697 -0.11582936
000220 35 15 4a be 23 43 1e 3d c9 b9 1b 3e ac cc 8d bd
       -0.19734652 0.038638245 0.1520759 -0.06923804
000230 d7 2a 3d bd 65 f7 fe bd bc ee a5 bd 5a 02 db 3d
       -0.046183433 -0.124495305 -0.081021756 0.10693808
000240 94 31 55 be e7 d2 54 be 82 df a0 bc 40 e1 a6 bd
       -0.20819694 -0.20783578 -0.019637827 -0.08148432
000250 29 85 14 3e 31 b0 45 be 43 27 e3 bc 32 b6 47 bd
       0.14503922 -0.19305493 -0.027728682 -0.04875774
000260 eb ff 18 3e 5c 14 8e bb 69 92 aa bd 8a bd 21 be
       0.14941375 -0.004335923 -0.08328707 -0.1579496
000270 7b d7 34 3e 0a 3f 23 3e 9f 15 49 3c 37 85 3c 3d
       0.17660324 0.15942016 0.012273221 0.04602548
000280 0f 6a fe 3d f8 b2 81 be 2c 89 1d 3e e5 1e f0 bc
       0.12422573 -0.25331855 0.15384358 -0.029311607
000290 91 53 0c be 9a 27 1e 3c db c6 9e 3c 2e 22 73 be
       -0.13703753 0.009652996 0.019381931 -0.23743507
0002a0 c4 d6 b2 bd 3e 38 ef 3c 3e d9 f8 bd 01 6d 12 3d
       -0.087323695 0.029201623 -0.12150811 0.035748485
0002b0 aa 46 3b be 99 04 e0 bd a1 28 33 bc 72 f4 d8 bd
       -0.18288675 -0.10938377 -0.01093498 -0.10593499
0002c0 23 95 2b be 10 03 3f bd 03 17 cf bd 63 bc ca bc
       -0.1675611 -0.04663378 -0.10111811 -0.024748033
0002d0 2c 33 d4 3d 60 5d 8d bd 2f ea 36 3e f8 91 1a 3c
       0.10361323 -0.069025755 0.17862771 0.009434216
0002e0 1a 8a e8 bd 2c ed 89 bd ad f4 aa 3d 4b 06 f8 bd
       -0.11354466 -0.0673469 0.083474495 -0.12110575
0002f0 b1 4d 9b bd 81 5a 05 be 2f f9 cd bd 7a b9 29 3e
       -0.07583178 -0.13022806 -0.100572936 0.1657466
000300 64 99 6e bc 74 56 87 3d 8c 22 b7 3d ce d3 26 3d
       -0.014562938 0.066082865 0.08942136 0.040729336
000310 ea 6e 06 3e 74 e6 3d bd d1 9c 7f 3d 74 81 c9 bc
       0.13128248 -0.046362355 0.06240541 -0.02459786
000320 7a 6b 32 be 20 b1 7a bc 22 74 fe bb 01 5a 4b 3e
       -0.17423812 -0.015301019 -0.007765309 0.19858553
000330 2c 0c 84 be d2 9f 08 3d 9c 01 87 3d c7 45 f4 bd
       -0.25790536 0.03335554 0.06592104 -0.119273715
000340 51 f2 38 bd 34 25 c5 3d d7 51 6f 3e 19 e4 f1 bd
       -0.045152966 0.096262366 0.23371063 -0.11811084
000350 e1 49 32 3e 16 f9 e4 3b e8 df 21 bb 3c d5 1e 3d
       0.17410995 0.006987701 -0.002470011 0.038777575
000360 bf 98 26 bc 26 5a e2 bc dd 7b da 3c 54 e4 22 be
       -0.010168253 -0.027630877 0.02667039 -0.15907413
000370 3a 54 fe 3d 0c ac fa 3b 1d fa 0a 3e 9e 5f 92 be
       0.12418409 0.007649904 0.13571973 -0.28588575
000380 d0 11 2e bd aa 57 cb 3c e4 93 8a 3d 7c f9 05 be
       -0.042497456 0.024822075 0.06766489 -0.13083452
000390 0b 94 6f 3e 80 49 dd 3d 59 3c 36 3c c6 57 76 3d
       0.23396318 0.10805035 0.011122786 0.0601423
0003a0 3e 9d 93 bd 69 2a 9a be 9b e4 8a bd 93 8d 45 be
       -0.07207726 -0.3011048 -0.06781884 -0.19292288
0003b0 9c 59 66 3e d5 91 23 3d 01 51 12 be a1 b7 c9 bc
       0.22495121 0.039934 -0.14288713 -0.024623694
0003c0 d5 04 59 bd d7 e2 09 bc d7 b2 bc 3e af df 99 3b
       -0.052983124 -0.008415899 0.36855194 0.0046958546
0003d0 5a 9d 67 be 17 94 ac bd ee 02 78 bd c3 1d 00 bd
       -0.22618619 -0.084266834 -0.06054967 -0.031278383
0003e0 b0 db d7 3d d5 f4 20 3d fe 98 8c bc 7e c6 1b be
       0.10539949 0.03929599 -0.017162796 -0.15212438
0003f0 1b ce 5d be a2 4e 24 3d fa f2 88 bd 79 51 d3 3d
       -0.21660654 0.040114053 -0.06686969 0.10318274

fc3.bias f4 [10]
000000 b6 9d 1d be 76 9c b2 bd 14 cd df 3b 46 3b 31 3e
       -0.15392193 -0.08721249 0.006829867 0.17307767
000010 fe 38 92 3e a5 eb d3 bd 82 eb 7a bd 92 cf 79 bc
       0.28559107 -0.1034768 -0.061259754 -0.0152472425
000020 9a 76 fc 3d 10 c9 5c bd
       0.12327309 -0.053902686
